quantized_model.tflite (tflite, 193032 bytes, 8 tensors)

sequential_3/dense_7/MatMul i1 [3, 128] scale=0.002570189 zero_point=0
0.12593926 0.08995662 -0.041123025 -0.19790456 -0.22617663 0.038552836 -0.09252681 -0.15164116
0.002570189 0.051403783 -0.051403783 -0.035982646 -0.11308832 0.07967586 -0.27501023 -0.020561513
0.1387902 -0.051403783 0.12850945 0.09252681 -0.2133257 -0.05654416 0.046263404 -0.017991323
0.05911435 -0.06425472 0.025701892 -0.06682491 -0.2133257 0.015421134 0.2827208 -0.11051813
0.23902759 0.1644921 -0.041123025 0.11051813 -0.1182287 0.051403783 0.08481624 -0.2133257
0.09766719 0.043693215 0.08738643 0.2107555 0.095097 0.038552836 0.10794794 0.22874683
-0.02827208 -0.1182287 -0.2827208 -0.043693215 0.15678154 0.21589588 0.14907096 -0.14907096
-0.1644921 0.12850945 0.043693215 -0.048833594 0.1182287 -0.07967586 0.023131702 -0.046263404
0.1644921 0.08738643 -0.19790456 -0.07710567 -0.023131702 0.11308832 0.12850945 -0.18505362
0.11308832 -0.0693951 -0.002570189 -0.15421134 -0.10023738 0.041123025 0.17220266 0.046263404
-0.038552836 -0.09766719 -0.06682491 0.10023738 -0.015421134 0.07967586 -0.08738643 0.06425472
0.11308832 0.015421134 0.1413604 -0.09252681 0.025701892 0.06682491 0.048833594 -0.190194
-0.038552836 0.12850945 0.16192192 0.010280756 0.043693215 -0.20304494 -0.16706228 -0.1413604
-0.15935172 -0.32641402 -0.15164116 0.1413604 0.06425472 0.11565851 -0.11051813 0.05397397
-0.07196529 0.10280757 0.051403783 -0.12850945 -0.09766719 -0.05911435 -0.0693951 -0.015421134
0.017991323 -0.08738643 0.07196529 0.007710567 0.10537775 -0.10023738 -0.09252681 0.046263404
-0.11051813 0.041123025 -0.041123025 -0.18505362 0.017991323 -0.07710567 -0.16706228 0.1387902
0.012850946 -0.17220266 -0.10023738 -0.07196529 -0.043693215 0.051403783 -0.123369075 0.033412457
0.051403783 0.2107555 0.005140378 -0.095097 -0.15678154 -0.046263404 0.15678154 0.07967586
0.1413604 -0.038552836 0.1182287 0.20304494 0.041123025 -0.046263404 -0.043693215 0.017991323
-0.24159777 -0.2775804 0.20047475 -0.08995662 0.05397397 0.023131702 0.015421134 -0.09252681
-0.29300156 0.09252681 -0.07196529 -0.0693951 -0.017991323 0.010280756 -0.23131701 -0.1387902
0.0 0.13364983 -0.06682491 -0.033412457 0.1182287 -0.16963248 0.1413604 0.22360645
0.038552836 -0.08995662 0.038552836 -0.06682491 -0.033412457 -0.07710567 0.07196529 -0.023131702
-0.2544487 0.13107964 0.08995662 -0.08224605 -0.08224605 0.041123025 -0.06682491 -0.05397397
0.05654416 -0.07196529 -0.017991323 0.08995662 0.07967586 -0.10537775 -0.14393058 -0.025701892
-0.09766719 -0.05911435 0.07196529 -0.15678154 0.010280756 -0.007710567 -0.10023738 0.10794794
-0.10794794 -0.010280756 0.038552836 0.10280757 0.05911435 0.31099287 0.07967586 0.11308832
0.09252681 0.030842269 -0.07967586 0.002570189 0.030842269 -0.010280756 0.06682491 -0.051403783
0.1413604 -0.16963248 0.046263404 -0.13364983 -0.015421134 0.07967586 0.020561513 0.120798886
-0.015421134 0.13364983 0.09766719 -0.21589588 -0.11308832 -0.13364983 -0.06682491 0.10280757
0.1413604 -0.06425472 -0.041123025 -0.05397397 0.023131702 -0.10537775 -0.02827208 0.08995662
00000000: 3123 f0b3 a80f dcc5 0114 ecf2 d41f 95f8
00000010: 36ec 3224 adea 12f9 17e7 0ae6 ad06 6ed5
00000020: 5d40 f02b d214 21ad 2611 2252 250f 2a59
00000030: f5d2 92ef 3d54 3ac6 c032 11ed 2ee1 09ee
00000040: 4022 b3e2 f72c 32b8 2ce5 ffc4 d910 4312
00000050: f1da e627 fa1f de19 2c06 37dc 0a1a 13b6
00000060: f132 3f04 11b1 bfc9 c281 c537 192d d515
00000070: e428 14ce dae9 e5fa 07de 1c03 29d9 dc12
00000080: d510 f0b8 07e2 bf36 05bd d9e4 ef14 d00d
00000090: 1452 02db c3ee 3d1f 37f1 2e4f 10ee ef07
000000a0: a294 4edd 1509 06dc 8e24 e4e5 f904 a6ca
000000b0: 0034 e6f3 2ebe 3757 0fdd 0fe6 f3e2 1cf7
000000c0: 9d33 23e0 e010 e6eb 16e4 f923 1fd7 c8f6
000000d0: dae9 1cc3 04fd d92a d6fc 0f28 1779 1f2c
000000e0: 240c e101 0cfc 1aec 37be 12cc fa1f 082f
000000f0: fa34 26ac d4cc e628 37e7 f0eb 09d7 f523

sequential_3/dense_6/MatMul i1 [128, 256] scale=0.006228727 zero_point=0
0.17440435 -0.08720218 -0.2304629 -0.15571818 0.031143634 -0.012457454 0.13703199 -0.13080326
0.0 -0.08097345 0.037372362 0.11211708 0.031143634 0.012457454 -0.0934309 -0.1619469
-0.16817562 0.04360109 -0.21800543 -0.031143634 0.037372362 0.037372362 0.18063308 0.11834581
0.13080326 0.012457454 -0.11834581 -0.08097345 0.17440435 -0.08720218 -0.0934309 0.074744724
-0.09965963 -0.18063308 -0.06851599 -0.09965963 0.17440435 0.062287267 -0.006228727 -0.006228727
-0.04360109 0.11211708 -0.13080326 -0.11211708 -0.11834581 0.11834581 0.0 -0.031143634
0.1868618 -0.17440435 0.16817562 -0.012457454 -0.13080326 0.08097345 -0.031143634 -0.23669162
-0.012457454 0.049829815 -0.08720218 -0.074744724 -0.006228727 0.049829815 0.22423416 0.0
-0.18063308 0.28029272 -0.0934309 -0.19309053 -0.19309053 0.0 0.037372362 0.062287267
-0.012457454 0.049829815 -0.006228727 0.13703199 -0.037372362 -0.04360109 -0.0934309 -0.19931926
-0.006228727 -0.08720218 -0.1619469 -0.037372362 0.04360109 0.0934309 -0.17440435 -0.11834581
-0.15571818 0.11211708 -0.11834581 0.05605854 -0.0934309 0.062287267 0.08720218 0.13703199
0.21177672 0.0 -0.14948945 -0.124574535 -0.012457454 -0.018686181 0.0934309 0.006228727
0.0 0.16817562 -0.13703199 0.19309053 0.012457454 0.08720218 -0.05605854 -0.012457454
-0.14326072 0.08720218 -0.06851599 0.049829815 0.074744724 -0.10588836 0.062287267 0.0
-0.19309053 0.10588836 0.08720218 -0.08720218 0.08097345 -0.17440435 0.1868618 -0.13703199
0.037372362 0.049829815 -0.05605854 -0.0934309 -0.031143634 -0.05605854 -0.06851599 0.04360109
-0.28029272 0.012457454 0.024914907 -0.049829815 -0.049829815 -0.18063308 -0.09965963 -0.024914907
0.062287267 -0.10588836 0.024914907 -0.11211708 -0.037372362 0.18063308 0.08720218 -0.018686181
-0.08097345 0.0934309 0.037372362 -0.06851599 0.05605854 0.04360109 -0.037372362 -0.012457454
-0.006228727 -0.08097345 -0.124574535 0.124574535 0.19309053 0.08097345 0.0 -0.06851599
-0.074744724 0.1868618 -0.037372362 -0.13703199 -0.08720218 0.0 0.031143634 0.14948945
0.08097345 -0.074744724 0.08720218 0.23669162 0.0 0.0 0.17440435 -0.049829815
-0.06851599 -0.037372362 0.23669162 -0.19309053 0.10588836 0.08097345 0.049829815 0.031143634
0.0 0.11211708 -0.08720218 -0.27406397 -0.17440435 -0.13080326 -0.08720218 0.11834581
0.13080326 0.05605854 0.11211708 -0.11834581 -0.012457454 0.08720218 0.074744724 -0.13703199
0.0 -0.006228727 -0.024914907 0.05605854 -0.10588836 -0.018686181 0.14326072 0.08097345
-0.124574535 -0.09965963 -0.012457454 -0.16817562 -0.012457454 0.11834581 -0.13080326 -0.037372362
-0.14948945 0.074744724 0.074744724 -0.08097345 -0.006228727 0.16817562 -0.062287267 -0.04360109
0.074744724 -0.062287267 0.049829815 0.012457454 -0.04360109 -0.05605854 0.11834581 -0.08720218
0.006228727 0.074744724 -0.11834581 -0.0934309 0.018686181 -0.08720218 0.037372362 -0.10588836
-0.062287267 0.012457454 0.0934309 0.0934309 -0.10588836 -0.124574535 -0.13703199 0.0
00000000: 1cf2 dbe7 05fe 16eb 00f3 0612 0502 f1e6
00000010: e507 ddfb 0606 1d13 1502 edf3 1cf2 f10c
00000020: f0e3 f5f0 1c0a ffff f912 ebee ed13 00fb
00000030: 1ee4 1bfe eb0d fbda fe08 f2f4 ff08 2400
00000040: e32d f1e1 e100 060a fe08 ff16 faf9 f1e0
00000050: fff2 e6fa 070f e4ed e712 ed09 f10a 0e16
00000060: 2200 e8ec fefd 0f01 001b ea1f 020e f7fe
00000070: e90e f508 0cef 0a00 e111 0ef2 0de4 1eea
00000080: 0608 f7f1 fbf7 f507 d302 04f8 f8e3 f0fc
00000090: 0aef 04ee fa1d 0efd f30f 06f5 0907 fafe
000000a0: fff3 ec14 1f0d 00f5 f41e faea f200 0518
000000b0: 0df4 0e26 0000 1cf8 f5fa 26e1 110d 0805
000000c0: 0012 f2d4 e4eb f213 1509 12ed fe0e 0cea
000000d0: 00ff fc09 effd 170d ecf0 fee5 fe13 ebfa
000000e0: e80c 0cf3 ff1b f6f9 0cf6 0802 f9f7 13f2
000000f0: 010c edf1 03f2 06ef f602 0f0f efec ea00

sequential_3/bidirectional_3/backward_lstm_3/Read_2/ReadVariableOp1 i1 [512] scale=0.0056593274 zero_point=-91
-0.0622526 0.0622526 0.039615292 -0.06791193 0.0 -0.14714251 -0.079230584 -0.011318655
0.06791193 0.08488991 -0.028296636 -0.056593273 -0.06791193 -0.06791193 -0.050933946 0.056593273
0.04527462 0.0 -0.08488991 -0.10752722 -0.113186546 0.028296636 -0.18109848 -0.09054924
-0.113186546 -0.1245052 0.06791193 -0.113186546 -0.016977983 -0.033955965 -0.056593273 -0.096208565
-0.011318655 0.096208565 0.056593273 0.0056593274 -0.011318655 -0.14714251 -0.11884587 -0.15846117
-0.039615292 -0.0622526 -0.0056593274 0.04527462 0.011318655 0.079230584 -0.02263731 -0.06791193
-0.096208565 0.0056593274 -0.039615292 -0.10752722 -0.079230584 -0.04527462 -0.04527462 -0.1245052
-0.04527462 0.04527462 -0.033955965 -0.056593273 -0.17543915 -0.033955965 -0.15280184 -0.050933946
0.050933946 -0.033955965 -0.011318655 0.10186789 -0.04527462 -0.033955965 0.056593273 -0.016977983
-0.09054924 -0.016977983 -0.033955965 -0.0622526 -0.07357126 -0.056593273 -0.096208565 0.039615292
0.02263731 -0.079230584 0.113186546 0.0056593274 -0.0622526 0.0056593274 -0.04527462 -0.16977982
-0.016977983 -0.09054924 -0.079230584 -0.1641205 -0.0622526 0.016977983 -0.07357126 -0.079230584
-0.016977983 -0.07357126 -0.09054924 -0.04527462 0.0056593274 -0.04527462 -0.02263731 0.016977983
-0.13016453 -0.079230584 0.011318655 -0.039615292 0.028296636 -0.016977983 -0.016977983 -0.13016453
-0.15280184 -0.028296636 0.056593273 0.06791193 0.033955965 -0.0622526 -0.016977983 -0.13582386
-0.20939511 -0.028296636 -0.1245052 0.09054924 -0.016977983 -0.016977983 -0.0622526 -0.039615292
0.967745 1.0865909 1.0696129 0.96208566 1.0243382 0.87153643 0.90549237 1.0413163
1.1545027 1.1318655 1.001701 0.96208566 0.9734043 0.967745 0.9903823 1.0582942
1.0809315 1.0696129 0.93944836 0.9111517 0.90549237 1.0696129 1.0243382 0.9451077
0.9734043 0.89417374 1.0356569 0.899833 1.1658214 1.0413163 0.950767 0.96208566
1.0356569 1.0865909 1.0413163 1.1318655 1.0639535 0.89417374 1.0356569 0.8262618
1.0243382 1.0469756 1.001701 1.1545027 1.0752722 1.1035688 1.211096 0.9564263
0.9281297 1.0979096 0.9960416 0.9111517 0.9564263 1.001701 0.9734043 1.0130196
0.9564263 1.0979096 0.96208566 0.97906363 0.8092838 0.9960416 0.8319211 1.0356569
1.0865909 0.9564263 1.0809315 1.1658214 0.9564263 0.9734043 1.0979096 1.1375248
1.0356569 1.1205468 1.1318655 0.9564263 1.0299976 0.950767 0.9564263 1.0186789
1.1658214 0.9451077 1.1205468 1.0299976 1.0582942 1.0582942 1.0809315 0.9734043
1.0073602 0.91681105 1.0073602 0.9903823 1.2337334 1.0582942 0.967745 1.0582942
1.1714808 1.0809315 0.9960416 0.9564263 1.001701 1.0243382 1.0243382 1.0752722
1.1262062 0.984723 1.0356569 1.1431842 1.0865909 1.0469756 1.0073602 0.8658771
0.8658771 0.9734043 1.1092281 1.0809315 1.0922502 0.96208566 1.0809315 0.9281297
0.87153643 0.9960416 1.1092281 1.0922502 1.1092281 1.0413163 0.9903823 0.97906363
00000000: 9ab0 ac99 a58b 97a3 b1b4 a09b 9999 9caf
00000010: ada5 9692 91aa 8595 918f b191 a29f 9b94
00000020: a3b6 afa6 a38b 9089 9e9a a4ad a7b3 a199
00000030: 94a6 9e92 979d 9d8f 9dad 9f9b 869f 8a9c
00000040: ae9f a3b7 9d9f afa2 95a2 9f9a 989b 94ac
00000050: a997 b9a6 9aa6 9d87 a295 9788 9aa8 9897
00000060: a298 959d a69d a1a8 8e97 a79e aaa2 a28e
00000070: 8aa0 afb1 ab9a a28d 80a0 8fb5 a2a2 9a9e
00000080: 5065 624f 5a3f 455d 716d 564f 5150 5460
00000090: 6462 4b46 4562 5a4c 5143 5c44 735d 4d4f
000000a0: 5c65 5d6d 6143 5c37 5a5e 5671 6368 7b4e
000000b0: 4967 5546 4e56 5158 4e67 4f52 3455 385c
000000c0: 654e 6473 4e51 676e 5c6b 6d4e 5b4d 4e59
000000d0: 734c 6b5b 6060 6451 5747 5754 7f60 5060
000000e0: 7464 554e 565a 5a63 6c53 5c6f 655e 573e
000000f0: 3e51 6964 664f 6449 3f55 6966 695d 5452

while/MatMul i1 [512, 6] scale=0.009709893 zero_point=0
0.029129678 -0.009709893 0.08738904 -0.08738904 -0.2524572 0.06796925 0.029129678 0.2621671
0.0 -0.09709893 -0.058259357 -0.1262286 -0.048549466 0.1359385 0.08738904 -0.019419786
0.0 -0.18448797 -0.11651871 -0.019419786 0.048549466 0.14564839 0.07767914 -0.019419786
-0.2621671 0.2621671 0.1359385 0.15535828 -0.11651871 0.09709893 -0.45636496 0.4078155
0.21361764 0.33013636 0.59230345 0.60201335 -0.11651871 -0.22332753 -0.029129678 -0.03883957
-0.35926604 -0.49520454 0.36897594 -0.271877 0.07767914 -0.09709893 -0.38839573 -0.42723528
-0.048549466 -0.029129678 -0.09709893 0.17477807 -0.20390774 -0.009709893 0.048549466 0.08738904
0.009709893 0.11651871 -0.09709893 -0.14564839 0.029129678 0.058259357 0.058259357 0.0
-0.29129678 -0.03883957 -0.048549466 0.22332753 0.24274732 0.0 0.058259357 -0.029129678
-0.06796925 -0.11651871 0.09709893 0.18448797 0.0 0.019419786 -0.37868583 0.42723528
0.2524572 0.21361764 0.15535828 -0.06796925 -0.058259357 -0.10680882 0.048549466 0.24274732
-0.15535828 -0.14564839 0.048549466 0.08738904 -0.03883957 0.09709893 -0.11651871 -0.07767914
-0.30100667 0.6991123 0.22332753 0.33013636 0.07767914 0.14564839 -0.08738904 0.18448797
0.1262286 -0.06796925 -0.07767914 0.30100667 -0.17477807 0.09709893 0.18448797 0.07767914
-0.3981056 -0.009709893 -0.1359385 0.11651871 0.20390774 -0.08738904 0.32042646 0.36897594
-0.35926604 0.24274732 0.2621671 0.029129678 0.14564839 0.058259357 -0.08738904 -0.1262286
0.0 -0.1262286 0.271877 -0.17477807 0.2621671 -0.21361764 0.33013636 -0.09709893
-0.45636496 -0.36897594 -0.11651871 0.20390774 0.17477807 0.0 -0.2621671 0.08738904
-0.22332753 -0.2524572 -0.058259357 0.1262286 -0.2621671 0.029129678 -0.24274732 -0.048549466
0.14564839 0.35926604 -0.31071657 -0.07767914 -0.08738904 0.2621671 0.0 0.14564839
-0.24274732 -0.09709893 -0.07767914 -0.009709893 0.32042646 0.24274732 -0.048549466 -0.019419786
0.029129678 0.2621671 0.10680882 0.2621671 -0.46607485 -0.17477807 0.06796925 0.23303743
0.08738904 0.07767914 -0.03883957 -0.21361764 0.11651871 0.1262286 0.029129678 0.029129678
0.0 -0.019419786 0.59230345 -0.5049144 0.17477807 0.009709893 -0.43694517 -0.5243342
-0.10680882 0.20390774 0.07767914 -0.058259357 -0.029129678 -0.058259357 -0.11651871 0.21361764
0.029129678 -0.09709893 0.048549466 -0.14564839 -0.29129678 0.058259357 0.0 0.048549466
-0.15535828 0.07767914 -0.1359385 0.09709893 -0.009709893 0.33984625 -0.29129678 0.1359385
-0.16506818 0.14564839 0.08738904 0.2621671 0.06796925 0.2621671 -0.6894024 0.33984625
0.16506818 0.32042646 0.23303743 0.42723528 0.029129678 -0.19419786 0.19419786 0.11651871
-0.33984625 -0.33013636 -0.11651871 -0.009709893 0.29129678 0.048549466 -0.30100667 -0.17477807
-0.16506818 0.17477807 0.1262286 0.18448797 -0.543754 0.07767914 0.11651871 -0.2524572
0.029129678 0.14564839 -0.14564839 -0.11651871 0.11651871 -0.17477807 -0.009709893 -0.11651871
00000000: 03ff 09f7 e607 031b 00f6 faf3 fb0e 09fe
00000010: 00ed f4fe 050f 08fe e51b 0e10 f40a d12a
00000020: 1622 3d3e f4e9 fdfc dbcd 26e4 08f6 d8d4
00000030: fbfd f612 ebff 0509 010c f6f1 0306 0600
00000040: e2fc fb17 1900 06fd f9f4 0a13 0002 d92c
00000050: 1a16 10f9 faf5 0519 f0f1 0509 fc0a f4f8
00000060: e148 1722 080f f713 0df9 f81f ee0a 1308
00000070: d7ff f20c 15f7 2126 db19 1b03 0f06 f7f3
00000080: 00f3 1cee 1bea 22f6 d1da f415 1200 e509
00000090: e9e6 fa0d e503 e7fb 0f25 e0f8 f71b 000f
000000a0: e7f6 f8ff 2119 fbfe 031b 0b1b d0ee 0718
000000b0: 0908 fcea 0c0d 0303 00fe 3dcc 1201 d3ca
000000c0: f515 08fa fdfa f416 03f6 05f1 e206 0005
000000d0: f008 f20a ff23 e20e ef0f 091b 071b b923
000000e0: 1121 182c 03ec 140c ddde f4ff 1e05 e1ee
000000f0: ef12 0d13 c808 0ce6 030f f1f4 0cee fff4

while/MatMul_11 i1 [512, 128] scale=0.00451766 zero_point=0
-0.2032947 0.11745916 -0.10390618 0.11745916 0.00451766 -0.07680022 0.04065894 -0.00903532
0.0451766 -0.17167108 -0.01807064 0.0903532 0.0225883 -0.11745916 -0.05872958 -0.18974172
0.0451766 0.08583554 -0.0135529805 0.04969426 -0.12649448 -0.06324724 0.04065894 -0.04969426
0.01807064 -0.0225883 -0.0677649 0.03614128 -0.09487086 0.1355298 -0.07680022 -0.07680022
-0.08131788 -0.12197682 -0.03614128 -0.027105961 -0.19877703 -0.17167108 -0.01807064 -0.0225883
0.0135529805 -0.0225883 0.1129415 0.0677649 0.12197682 0.16715342 -0.03614128 0.06324724
-0.0135529805 0.17167108 0.16715342 -0.0677649 0.23943599 0.07680022 -0.07228256 0.17618874
-0.04969426 0.09938852 -0.04969426 -0.07680022 -0.07680022 -0.14004746 0.00903532 -0.108423844
-0.25298896 0.0225883 0.04969426 -0.03614128 0.03162362 0.027105961 -0.03614128 -0.09938852
-0.05872958 -0.08131788 -0.09487086 0.08131788 0.0225883 -0.08131788 -0.01807064 0.03614128
-0.15360044 -0.08583554 -0.04065894 -0.16263576 -0.11745916 0.14004746 -0.18974172 -0.01807064
0.14004746 0.0451766 -0.027105961 0.1581181 0.1581181 0.0 -0.0903532 0.108423844
0.03162362 -0.09487086 0.00451766 0.08583554 -0.01807064 -0.03614128 0.08131788 -0.16263576
-0.0451766 -0.07680022 0.0677649 0.21233001 -0.17167108 0.09938852 0.09938852 0.0
-0.08583554 0.1581181 0.0225883 0.09487086 -0.0225883 0.054211922 -0.027105961 -0.00903532
-0.00903532 0.054211922 0.05872958 -0.04969426 0.0903532 0.15360044 0.054211922 -0.12649448
-0.09938852 -0.00903532 0.03162362 0.11745916 -0.06324724 0.03162362 0.14004746 -0.03614128
-0.027105961 -0.01807064 -0.06324724 0.01807064 -0.01807064 -0.05872958 0.04065894 -0.1129415
0.14004746 0.00451766 0.07680022 0.10390618 -0.1355298 0.0451766 0.17618874 0.13101214
-0.00903532 0.0677649 -0.00451766 0.07680022 -0.07228256 0.04065894 -0.14456512 -0.0135529805
-0.1355298 0.0451766 0.10390618 -0.14456512 0.05872958 -0.0135529805 -0.14004746 0.027105961
0.08131788 -0.08131788 -0.05872958 -0.08583554 0.15360044 0.12197682 -0.03162362 -0.07680022
-0.10390618 0.027105961 0.08131788 -0.0225883 0.0225883 0.1355298 -0.04969426 0.09938852
0.04969426 0.0451766 -0.09938852 0.06324724 0.01807064 -0.01807064 -0.05872958 0.00451766
0.0225883 -0.1355298 0.18522406 -0.1355298 0.0903532 0.16263576 0.04969426 -0.07680022
-0.05872958 -0.08131788 -0.07680022 0.06324724 0.0677649 -0.0225883 -0.108423844 0.0135529805
0.00451766 -0.07228256 0.03614128 -0.0451766 -0.05872958 0.14004746 0.0 0.14004746
-0.00903532 0.00451766 -0.09938852 0.10390618 0.16715342 0.00451766 -0.14908278 0.0903532
0.03614128 -0.1581181 0.04065894 0.0677649 0.23491833 -0.14456512 0.00903532 -0.0677649
0.03614128 -0.14456512 0.14004746 0.18974172 -0.14908278 0.0135529805 0.10390618 0.08583554
-0.01807064 -0.03614128 0.10390618 -0.06324724 0.0225883 0.12197682 -0.10390618 0.09938852
-0.108423844 0.0903532 0.03614128 -0.05872958 -0.14004746 0.1129415 0.14004746 -0.04969426
00000000: d31a e91a 01ef 09fe 0ada fc14 05e6 f3d6
00000010: 0a13 fd0b e4f2 09f5 04fb f108 eb1e efef
00000020: eee5 f8fa d4da fcfb 03fb 190f 1b25 f80e
00000030: fd26 25f1 3511 f027 f516 f5ef efe1 02e8
00000040: c805 0bf8 0706 f8ea f3ee eb12 05ee fc08
00000050: deed f7dc e61f d6fc 1f0a fa23 2300 ec18
00000060: 07eb 0113 fcf8 12dc f6ef 0f2f da16 1600
00000070: ed23 0515 fb0c fafe fe0c 0df5 1422 0ce4
00000080: eafe 071a f207 1ff8 fafc f204 fcf3 09e7
00000090: 1f01 1117 e20a 271d fe0f ff11 f009 e0fd
000000a0: e20a 17e0 0dfd e106 12ee f3ed 221b f9ef
000000b0: e906 12fb 051e f516 0b0a ea0e 04fc f301
000000c0: 05e2 29e2 1424 0bef f3ee ef0e 0ffb e803
000000d0: 01f0 08f6 f31f 001f fe01 ea17 2501 df14
000000e0: 08dd 090f 34e0 02f1 08e0 1f2a df03 1713
000000f0: fcf8 17f2 051b e916 e814 08f3 e119 1ff5

sequential_3/bidirectional_3/forward_lstm_3/Read_2/ReadVariableOp1 i1 [512] scale=0.0053347773 zero_point=-89
-0.0053347773 0.026673887 0.05868255 0.0053347773 -0.11203032 0.04267822 0.0053347773 -0.016004331
0.04267822 -0.069352105 -0.14403899 -0.18138243 -0.11203032 0.064017326 -0.08535644 0.048012994
-0.032008663 0.064017326 -0.10136077 -0.14403899 -0.016004331 -0.10136077 0.08535644 0.13870421
0.064017326 0.064017326 -0.04267822 -0.11203032 -0.08535644 0.016004331 -0.074686885 -0.048012994
0.04267822 -0.02133911 -0.08535644 -0.016004331 -0.14403899 0.0 -0.1653781 0.08535644
-0.074686885 -0.016004331 -0.10669555 -0.1173651 0.032008663 0.048012994 -0.04267822 0.0
-0.09602599 -0.04267822 0.032008663 -0.026673887 -0.04267822 -0.08002166 0.037343442 -0.064017326
-0.13870421 -0.037343442 0.0053347773 -0.0053347773 0.08535644 -0.12803465 -0.14403899 -0.08535644
-0.026673887 -0.016004331 -0.09069122 0.09069122 -0.026673887 0.053347774 -0.14937377 -0.037343442
-0.026673887 -0.08535644 -0.074686885 -0.037343442 -0.20805632 -0.02133911 0.05868255 -0.037343442
-0.09602599 0.0 -0.053347774 -0.048012994 -0.032008663 0.048012994 -0.08535644 0.04267822
0.04267822 -0.12269988 0.0053347773 -0.074686885 -0.04267822 -0.026673887 -0.18671721 -0.016004331
-0.16004331 0.0053347773 0.0053347773 -0.074686885 0.14937377 0.037343442 -0.08002166 -0.11203032
0.016004331 0.048012994 -0.05868255 -0.14937377 -0.08002166 -0.1173651 0.053347774 0.0053347773
-0.074686885 -0.15470853 0.0053347773 -0.08002166 0.0053347773 0.04267822 -0.053347774 0.048012994
0.0053347773 -0.05868255 -0.0053347773 -0.02133911 -0.026673887 -0.053347774 0.074686885 -0.053347774
1.0082729 1.104299 1.0296121 1.0456164 0.8642339 0.97092944 1.0722902 0.98159903
1.1096337 0.97092944 0.91224694 0.8482296 1.0082729 1.0082729 1.0029382 1.0349468
0.9549251 1.0936294 0.933586 0.8749035 1.0189425 0.9229165 1.1149684 1.1469771
1.0936294 1.0242772 0.9442556 0.91224694 1.1523119 1.0029382 0.9229165 1.0936294
1.1096337 0.9442556 0.90157735 1.0242772 0.8909078 0.9869338 1.0296121 1.1203033
0.885573 1.1203033 0.90157735 0.90691215 1.0189425 0.9869338 0.9442556 1.0402815
0.91224694 1.0029382 1.0456164 0.9495904 0.9655947 0.9602599 1.104299 0.9389208
0.9229165 0.98159903 0.99226856 0.99760336 1.0509511 0.91224694 1.077625 0.90157735
0.99226856 1.0349468 0.92825127 1.0722902 1.0242772 1.0882946 0.8749035 0.9442556
0.9655947 1.0296121 0.99226856 0.9389208 0.8535644 0.97092944 1.1149684 0.99226856
0.933586 1.0029382 0.9869338 0.99760336 1.0029382 1.0722902 1.0189425 1.0456164
1.0989641 0.885573 1.0082729 0.9655947 1.0136077 1.125638 0.885573 1.0082729
0.88023823 0.97092944 0.97626424 0.9175817 1.0936294 1.0989641 0.933586 0.885573
1.0296121 1.0349468 1.0136077 0.91224694 0.9869338 0.8909078 1.0669554 1.0189425
1.0082729 0.8642339 1.0509511 0.91224694 0.98159903 0.98159903 1.0136077 1.077625
1.0669554 0.92825127 1.0562859 0.9869338 0.99760336 0.92825127 1.1149684 1.0189425
00000000: a6ac b2a8 92af a8a4 af9a 8c85 92b3 97b0
00000010: a1b3 948c a494 b7c1 b3b3 9f92 97aa 999e
00000020: afa3 97a4 8ca7 88b7 99a4 9391 adb0 9fa7
00000030: 959f ada2 9f98 ae9b 8da0 a8a6 b78f 8c97
00000040: a2a4 96b8 a2b1 8ba0 a297 99a0 80a3 b2a0
00000050: 95a7 9d9e a1b0 97af af90 a899 9fa2 84a4
00000060: 89a8 a899 c3ae 9892 aab0 9c8b 9891 b1a8
00000070: 998a a898 a8af 9db0 a89c a6a3 a29d b59d
00000080: 6476 686b 495d 705f 775d 5246 6464 6369
00000090: 5a74 564b 6654 787e 7467 5852 7f63 5474
000000a0: 7758 5067 4e60 6879 4d79 5051 6660 586a
000000b0: 5263 6b59 5c5b 7657 545f 6162 6c52 7150
000000c0: 6169 5570 6773 4b58 5c68 6157 475d 7861
000000d0: 5663 6062 6370 666b 754d 645c 657a 4d64
000000e0: 4c5d 5e53 7475 564d 6869 6552 604e 6f66
000000f0: 6449 6c52 5f5f 6571 6f55 6d60 6255 7866

while/MatMul2 i1 [512, 6] scale=0.007645997 zero_point=0
-0.122335956 -0.061167978 0.16056594 0.02293799 -0.05352198 0.36700785 0.12998195 0.030583989
-0.05352198 0.030583989 0.061167978 -0.015291994 0.45875984 0.21408792 -0.05352198 0.122335956
-0.2676099 -0.15291995 -0.23702592 -0.10704396 -0.076459974 -0.02293799 -0.09175196 -0.06881397
0.22173391 -0.24467191 -0.08410597 0.21408792 -0.04587598 -0.13762794 0.12998195 -0.16821194
0.015291994 0.14527395 0.06881397 0.076459974 -0.08410597 0.02293799 0.11468996 0.015291994
0.16056594 0.19879593 -0.16056594 -0.22173391 0.0 0.15291995 0.015291994 -0.20644192
0.05352198 -0.061167978 0.02293799 0.015291994 0.05352198 0.04587598 -0.16821194 -0.12998195
-0.007645997 0.04587598 -0.13762794 0.10704396 -0.2523179 -0.09175196 0.007645997 0.04587598
0.13762794 0.09175196 0.20644192 -0.02293799 0.122335956 0.40523785 -0.3134859 0.14527395
-0.030583989 -0.2599639 -0.10704396 0.030583989 0.076459974 -0.11468996 -0.015291994 -0.2905479
-0.16821194 -0.038229987 0.015291994 0.0 -0.24467191 -0.18350393 0.09175196 0.21408792
-0.22173391 -0.16821194 0.11468996 0.09175196 -0.22173391 0.5810958 -0.28290188 -0.49698982
0.8104757 -0.32113189 -0.061167978 0.60403377 -0.5505118 -0.8257677 0.16821194 0.12998195
-0.122335956 0.122335956 0.05352198 0.038229987 -0.8487057 -0.2676099 -0.11468996 -0.5275738
0.23702592 -0.51228184 -0.06881397 -0.007645997 0.2523179 0.09175196 -0.10704396 0.14527395
0.099397965 0.02293799 -0.030583989 0.19114994 -0.030583989 -0.10704396 0.08410597 0.015291994
0.28290188 0.15291995 0.0 0.2523179 -0.05352198 0.007645997 -0.076459974 -0.007645997
0.076459974 0.19114994 0.076459974 0.19879593 -0.076459974 0.12998195 -0.05352198 0.12998195
0.122335956 -0.11468996 0.0 -0.015291994 0.02293799 0.038229987 -0.015291994 -0.007645997
-0.11468996 0.45111385 -0.38229987 -0.015291994 0.11468996 -0.038229987 -0.09175196 0.5428658
-0.34406987 -0.2523179 -0.38229987 -0.12998195 0.19114994 -0.32877788 0.076459974 -0.16056594
-0.37465388 -0.3058399 -0.06881397 0.3134859 -0.3134859 -0.13762794 -0.038229987 -0.19879593
-0.015291994 -0.16056594 -0.06881397 0.038229987 -0.099397965 0.08410597 0.10704396 0.0
0.24467191 0.18350393 0.14527395 -0.22173391 -0.030583989 0.2676099 0.16056594 -0.076459974
-0.09175196 0.06881397 0.04587598 -0.14527395 -0.06881397 0.061167978 -0.32113189 -0.47405183
-0.2523179 0.0 -0.28290188 -0.44346783 0.099397965 -0.2905479 -0.04587598 -0.04587598
0.11468996 0.038229987 0.13762794 -0.030583989 0.11468996 0.06881397 0.08410597 0.09175196
0.39759186 0.06881397 0.19879593 0.02293799 0.05352198 0.05352198 0.36700785 0.20644192
-0.05352198 0.34406987 -0.19114994 -0.10704396 -0.19114994 -0.37465388 0.16821194 0.061167978
0.122335956 -0.10704396 -0.12998195 0.0 -0.007645997 -0.2599639 0.099397965 0.122335956
0.122335956 0.030583989 -0.06881397 0.38229987 -0.16821194 0.038229987 0.22173391 -0.21408792
-0.08410597 0.16821194 -0.33642387 -0.14527395 -0.33642387 0.08410597 0.21408792 -0.04587598
00000000: f0f8 1503 f930 1104 f904 08fe 3c1c f910
00000010: ddec e1f2 f6fd f4f7 1de0 f51c faee 11ea
00000020: 0213 090a f503 0f02 151a ebe3 0014 02e5
00000030: 07f8 0302 0706 eaef ff06 ee0e dff4 0106
00000040: 120c 1bfd 1035 d713 fcde f204 0af1 feda
00000050: eafb 0200 e0e8 0c1c e3ea 0f0c e34c dbbf
00000060: 6ad6 f84f b894 1611 f010 0705 91dd f1bb
00000070: 1fbd f7ff 210c f213 0d03 fc19 fcf2 0b02
00000080: 2514 0021 f901 f6ff 0a19 0a1a f611 f911
00000090: 10f1 00fe 0305 feff f13b cefe 0ffb f447
000000a0: d3df ceef 19d5 0aeb cfd8 f729 d7ee fbe6
000000b0: feeb f705 f30b 0e00 2018 13e3 fc23 15f6
000000c0: f409 06ed f708 d6c2 df00 dbc6 0dda fafa
000000d0: 0f05 12fc 0f09 0b0c 3409 1a03 0707 301b
000000e0: f92d e7f2 e7cf 1608 10f2 ef00 ffde 0d10
000000f0: 1004 f732 ea05 1de4 f516 d4ed d40b 1cfa

while/MatMul_14 i1 [512, 128] scale=0.0041087656 zero_point=0
-0.06574025 0.1561331 -0.06574025 0.028761359 0.024652593 -0.024652593 -0.07395778 0.057522718
0.12326297 -0.10682791 -0.09450161 -0.041087657 -0.032870125 0.061631486 -0.016435063 -0.041087657
-0.04519642 -0.061631486 0.082175314 -0.016435063 -0.049305186 0.07806655 -0.057522718 0.016435063
-0.061631486 -0.053413954 -0.012326296 0.11093667 -0.06574025 -0.20543829 0.028761359 0.024652593
0.19722074 -0.008217531 -0.1438068 0.061631486 -0.15202433 0.19722074 -0.016435063 0.13969803
-0.11093667 -0.04519642 -0.0041087656 -0.03697889 0.06574025 0.07395778 -0.024652593 -0.032870125
0.03697889 0.032870125 0.020543829 -0.1191542 0.09861037 0.008217531 0.09861037 -0.03697889
0.053413954 0.13969803 0.08628408 0.020543829 0.10682791 -0.115045436 -0.057522718 -0.049305186
0.115045436 0.069849014 -0.0041087656 -0.020543829 0.057522718 -0.061631486 0.03697889 -0.028761359
0.049305186 -0.020543829 -0.012326296 -0.19722074 0.0041087656 0.09450161 0.061631486 0.032870125
-0.082175314 0.03697889 0.15202433 -0.07395778 -0.008217531 0.041087657 0.04519642 0.028761359
0.053413954 -0.09039284 0.12737173 -0.032870125 0.12737173 -0.082175314 0.020543829 -0.115045436
0.008217531 0.18489446 -0.0041087656 0.06574025 0.020543829 -0.1191542 0.024652593 0.12737173
-0.115045436 0.115045436 0.09039284 0.057522718 0.07806655 0.028761359 -0.008217531 0.07806655
0.032870125 0.082175314 0.1314805 -0.17667693 0.0 0.028761359 -0.024652593 0.049305186
0.1438068 -0.012326296 0.057522718 0.07806655 0.14791556 0.049305186 -0.13558927 0.03697889
-0.12326297 0.1191542 0.020543829 0.20543829 0.13969803 0.09861037 -0.1191542 0.03697889
0.012326296 0.053413954 -0.08628408 -0.016435063 0.082175314 0.0 -0.06574025 0.06574025
0.12326297 -0.041087657 -0.03697889 0.057522718 0.024652593 -0.069849014 -0.10271914 -0.028761359
-0.06574025 0.016435063 -0.032870125 0.028761359 -0.049305186 -0.09039284 0.07806655 -0.09039284
0.09450161 -0.008217531 -0.069849014 0.10682791 -0.04519642 0.012326296 -0.053413954 0.10682791
0.09039284 -0.13969803 -0.061631486 0.057522718 0.13558927 -0.07395778 -0.028761359 0.1191542
0.053413954 0.082175314 -0.18900321 0.024652593 0.16845939 -0.1314805 0.07806655 -0.0041087656
-0.12326297 0.016435063 0.09039284 0.13969803 -0.1314805 -0.028761359 0.07806655 -0.020543829
0.06574025 -0.061631486 0.0 0.11093667 -0.012326296 -0.008217531 -0.17256816 -0.020543829
0.024652593 0.012326296 -0.049305186 -0.053413954 -0.18489446 -0.028761359 0.04519642 0.024652593
0.12326297 -0.020543829 0.06574025 -0.1561331 -0.15202433 -0.069849014 0.016435063 0.057522718
0.12326297 -0.032870125 0.115045436 -0.016435063 0.09039284 -0.13969803 0.012326296 -0.041087657
-0.0041087656 0.1438068 0.10271914 0.020543829 0.028761359 -0.032870125 -0.012326296 -0.14791556
-0.24241717 0.032870125 0.020543829 0.09039284 -0.028761359 0.053413954 0.032870125 0.082175314
0.057522718 -0.032870125 -0.012326296 -0.041087657 -0.028761359 0.024652593 -0.12326297 0.18489446
0.1191542 0.1191542 0.0041087656 -0.024652593 0.12326297 0.15202433 -0.1438068 0.024652593
00000000: f026 f007 06fa ee0e 1ee6 e9f6 f80f fcf6
00000010: f5f1 14fc f413 f204 f1f3 fd1b f0ce 0706
00000020: 30fe dd0f db30 fc22 e5f5 fff7 1012 faf8
00000030: 0908 05e3 1802 18f7 0d22 1505 1ae4 f2f4
00000040: 1c11 fffb 0ef1 09f9 0cfb fdd0 0117 0f08
00000050: ec09 25ee fe0a 0b07 0dea 1ff8 1fec 05e4
00000060: 022d ff10 05e3 061f e41c 160e 1307 fe13
00000070: 0814 20d5 0007 fa0c 23fd 0e13 240c df09
00000080: e21d 0532 2218 e309 030d ebfc 1400 f010
00000090: 1ef6 f70e 06ef e7f9 f004 f807 f4ea 13ea
000000a0: 17fe ef1a f503 f31a 16de f10e 21ee f91d
000000b0: 0d14 d206 29e0 13ff e204 1622 e0f9 13fb
000000c0: 10f1 001b fdfe d6fb 0603 f4f3 d3f9 0b06
000000d0: 1efb 10da dbef 040e 1ef8 1cfc 16de 03f6
000000e0: ff23 1905 07f8 fddc c508 0516 f90d 0814
000000f0: 0ef8 fdf6 f906 e22d 1d1d 01fa 1e25 dd06
